trained_models/se_model.pt (torch, 345246 bytes, 40 tensors)

encoder.conv_pos.map_to_feat.weight f4 [128, 2]
00000000: 7377 bcbf 6f64 3fbe b858 ec3e fccd 153f
00000010: 067a 92be af5f 4fbf e47e 61bf 5289 263f
00000020: 2912 29bf 21f5 06bf eaf8 c93e b8e6 7cbf
00000030: 9192 af3e 1222 7abf 89fb 673e 1f38 46bf
00000040: df7a a3be eee0 3bbf fc18 0e3f 68fd 0d3f
00000050: c1aa b83e feba 35bf 4dd4 603f 916a a7be
00000060: fc8d 96be ec08 82bf 94f3 cf3e bcdd 76bf
00000070: 9d51 d7be 86c2 2bbf a319 f63e b2e4 013f
00000080: ca68 893f e82c 4c3e 9875 cc3e d9c4 463f
00000090: eafb 50bf aae7 31bf fc31 0abf f970 63bf
000000a0: bb73 b53d 90cf c93f 76b2 8c3e 59f7 72bf
000000b0: 4dcf 9b3d d387 b53f 8478 4d3e 1681 b0bf
000000c0: f13d 60be 02e1 6fbf 5f71 e73e c7c5 553f
000000d0: 59b8 f83e 9bf7 bf3e 6fde ff3d 64f7 8fbf
000000e0: 3c52 4abe 76d1 8ebf ab94 b3be 76ca 4a3f
000000f0: c874 8bbf 6184 0d3e bb8d 273f 1dfa e23e
00000100: 0d1f 203e 4700 b5bf 1d7c 12bf d880 dbbe
00000110: e13f 5dbf 0663 29bf c08a 51bf 5324 d33e
00000120: b104 60bf 8fed d3be 2cca 1fbf c994 2ebf
00000130: a10c 573f 2cb3 b1be 2a87 c03e f2c0 5f3f
00000140: 9c14 2cbf 7b6d d8be 3e2e 15bf c465 04bf
00000150: 5196 f0be 621f fabe 6a3b 323e 4dc1 6bbf
00000160: cd7d 3ebe 3ad9 d13f e30d 44be ba4a 62bf
00000170: af28 cbbd 6401 cbbf a605 083f e1d4 123f
00000180: 1d11 36bf 8238 f13e 0db2 c53e bb77 09bf
00000190: 5c91 8a3f e383 623e 68ae 19bf f061 4a3f
000001a0: 3324 983e bf98 40bf 33cc 9b3e f215 673f
000001b0: 4bfb 3d3f d354 ee3e 649e 183f 0713 aabe
000001c0: 5516 8d3e bc03 54bf fa0a babe 6fbf 43bf
000001d0: c371 293f 7300 12bf 8f41 cfbd f4a6 0a40
000001e0: 58a8 43be 1b07 82bf 75f8 44bf be4a ef3e
000001f0: cf85 dcbe a716 783f 2432 67be c525 a83f
00000200: 3769 a7be c9aa 66bf 57c5 993e 3038 603f
00000210: 08a3 ecbe 9139 54bf d467 4a3f 6023 0d3f
00000220: 6422 5fbe e731 a53f dd10 7e3e b7c5 28c0
00000230: 816b 09bf cb21 17bf 7df1 6bbe 60bb f1bf
00000240: 4c91 003f fbb4 583f 6720 77bf adc2 70be
00000250: be5c 0d3f 35c1 433f 9f76 52be 3f47 66bf
00000260: 59d6 063f 45de 04bf 8c98 2abf 8778 e4be
00000270: c354 f73e 39bb 1fbf c760 d0be 5643 31bf
00000280: 23b8 38be a836 d0bf 5f5a e4be 8e74 ef3e
00000290: 4fa4 a03f c4ca 483e e141 823f 971b 903e
000002a0: 17c7 503e 16df 9cbf 188f 3bbe 1a4f 623f
000002b0: 9801 273e e6bf 89bf 6e56 46be 8ee7 5b3f
000002c0: 9f30 243e e657 8a3f 3e77 00bf 57da f03e
000002d0: a730 1b3f 2f20 213f d77b c03e f530 f13e
000002e0: fee7 d13e 129a 81bf 268d cbbe c7d5 3dbf
000002f0: 9b86 873f 3119 723e a03f 18bf af44 f33e
00000300: f643 30be 1fff 9e3f 9f00 573f c6e8 c93e
00000310: cfa7 bebe 9bab 21bf 22e7 513f 3b31 b5be
00000320: 2083 1a3f 9dcc afbe 2010 523f 1b67 adbe
00000330: 3011 1a3f d1ce 2fbf da38 5bbf 33db a83e
00000340: 9624 f1be 1cd4 63bf b1ae 803f c579 693e
00000350: 8054 2fbf 2f96 22bf 6650 80be fead 293f
00000360: 6ade 0fbe 30e9 b53f e0b5 833c 3b3c ddbf
00000370: b5dc 0d3f 090d edbe 1bb7 373e 83e3 933f
00000380: f40e a5be 0a53 1fbf b796 873f f390 473e
00000390: f681 04bd 0742 fe3f 5ed3 743f d8df 0a3f
000003a0: 8779 de3e 4399 e93e 5d58 a5be ceae 99bf
000003b0: 4b76 163e 33d5 c53f 3a95 573f ded2 d6be
000003c0: 04cf cbbd 3972 bb3f 1f62 6d3d 189c 3040
000003d0: 827f 403e 8e22 a93f 3416 dbbe 1ef1 51bf
000003e0: f839 903e f65b 783f 2fcb 12be 58c6 a6bf
000003f0: 1c25 14bf b50c 123f 2ea4 2a3e bfa3 a0bf
-1.4723953 -0.18690656 0.46161437 0.5851743 -0.28608721 -0.81005377 -0.88084245 0.65053284
-0.66043335 -0.5271779 0.3944772 -0.9878955 0.3429151 -0.9770824 0.22654547 -0.77429384
-0.3192968 -0.7339009 0.55506873 0.5546479 0.36067775 -0.7098845 0.87823945 -0.3269849
-0.294052 -1.0158973 0.40615523 -0.9643209 -0.42054453 -0.67093694 0.48066434 0.50739586
1.0735104 0.19939005 0.39933467 0.77644116 -0.8163439 -0.69494116 -0.5398252 -0.8884426
0.088599645 1.5766468 0.27479905 -0.9490867 0.07607899 1.4182075 0.20065504 -1.3789394
-0.21898629 -0.9370271 0.45203683 0.8350491 0.48578146 0.37493595 0.12493598 -1.1247373
-0.19757932 -1.1157672 -0.35074362 0.7921518 -1.0895014 0.1382003 0.6545064 0.44331446
0.15636845 -1.414071 -0.5722063 -0.42871737 -0.86425596 -0.6616672 -0.8185234 0.4123865
-0.8750716 -0.4139218 -0.62417865 -0.6819578 0.84003645 -0.3470701 0.37603122 0.87403786
-0.6721895 -0.42271027 -0.58273685 -0.5171778 -0.46989682 -0.48852068 0.17405477 -0.9209183
-0.18602677 1.6394417 -0.19145922 -0.88395274 -0.09919869 -1.5859799 0.5313362 0.5735608
-0.7111986 0.47113425 0.38612404 -0.5369832 1.082561 0.22120623 -0.6003175 0.7905569
0.29715118 -0.7523307 0.3042923 0.9026786 0.7421157 0.4654909 0.59616685 -0.33217642
0.275561 -0.828182 -0.363365 -0.7646398 0.6618921 -0.57031935 -0.10119926 2.16644
-0.19107187 -1.0158418 -0.76941615 0.4673671 -0.43070838 0.96909565 -0.22577721 1.3136526
-0.3269746 -0.9010435 0.3003337 0.87585735 -0.46218133 -0.8290034 0.7906468 0.551321
-0.21790463 1.2905854 0.2481112 -2.6370676 -0.5367966 -0.5903594 -0.23041339 -1.8885307
0.50221705 0.84651154 -0.9653382 -0.23511763 0.5521964 0.76466686 -0.20553063 -0.8995246
0.5267082 -0.51901656 -0.6663902 -0.44623205 0.48306856 -0.62395054 -0.40698835 -0.6924337
-0.18038993 -1.626668 -0.44600198 0.46768612 1.2550143 0.19608599 1.0176355 0.2814605
0.20388447 -1.225558 -0.18316305 0.8840195 0.16309202 -1.0761688 -0.19368908 0.859002
0.16034172 1.0808074 -0.5018195 0.4704158 0.6062111 0.62939733 0.37594482 0.47107664
0.40997308 -1.0125144 -0.39756125 -0.74154323 1.0587953 0.23642422 -0.59472084 0.4751334
-0.17213425 1.2421607 0.8398532 0.39435405 -0.37237403 -0.63152474 0.81993306 -0.35389122
0.6035633 -0.34335795 0.82055855 -0.33867726 0.60182476 -0.6867495 -0.85633624 0.32979736
-0.47098225 -0.8899553 1.0053312 0.22800358 -0.6848831 -0.6351041 -0.2506134 0.66281116
-0.14049688 1.4211788 0.016077936 -1.7284006 0.554149 -0.46299008 0.17940943 1.1553806
-0.3223797 -0.6223608 1.059287 0.19488887 -0.032350503 1.98639 0.9563502 0.5424781
0.43452093 0.45624742 -0.32293978 -1.2006471 0.14693563 1.5455688 0.84212077 -0.41957754
-0.099515945 1.4644233 0.057954904 2.7595272 0.1879864 1.321367 -0.42790377 -0.8200854
0.28169227 0.9701532 -0.14335321 -1.302928 -0.57869124 0.5705064 0.16664192 -1.2549971

encoder.conv_pos.batchnorm.bn.weight f4 [128]
00000000: 0f61 cb3e 29e8 4c3f 3e9f 923f 7344 a63f
00000010: 0938 ad3f f6e2 923f 3c77 ab3f dd44 453f
00000020: 5a33 ad3f f25c 753f 01cf 7a3f 7dc8 f03e
00000030: 44d1 323f a7c9 823f 82d5 c23f 50df 9f3f
00000040: 91e4 1f3f 109e d23f 2dac 8a3f 6462 563f
00000050: 9ef3 8a3f b72f 753f 9b74 d03f 25ee 883f
00000060: 153a 913f af25 343f 0914 5e3f 3ee2 533f
00000070: 7e0d 6d3f af51 543f d97d ef3d 2354 a43f
00000080: b907 373f e0d5 c73f fc76 bd3f 40dc 813f
00000090: 15fe 513f b5aa 543f 0f4d e03e 443b a33f
000000a0: 2936 e93e d375 8f3f 1395 213f 8496 af3f
000000b0: 677b a93f 3594 903f a9e3 563f 4b13 043f
000000c0: 4e7f 8b3f 9704 5a3f 4ea4 3e3f 1f1f 933f
000000d0: 001e 083f 4f87 aa3f 23da 903f 6dee 0a3f
000000e0: bf35 d63f f54c 983f 9083 7e3f a685 9e3f
000000f0: 4f5d 813f 347e 853f 4fb6 2a3f 650f 663f
00000100: f800 7e3f 9563 d03f 613b 8a3f e655 aa3f
00000110: 734d 643f 07d4 bd3f 4e54 333f 3593 953f
00000120: 7c6a 5f3f 1953 2f3f 760d 823f fe0c c73f
00000130: 694d 3b3f 16ba 953f 7040 a33f 57b1 4b3f
00000140: 3a37 b93f e4c5 ba3f ffbd 1d3f f5a1 8e3f
00000150: d05c c53f 1912 903f b8e5 c53f ca2c 973f
00000160: 7808 a93f 7940 9a3f ea3d 6e3f 02fe 7b3f
00000170: c8af a53f 0941 d23f 82ab 563f 72fc 9d3e
00000180: 7afd 763f 12b1 753f cc45 813f 3c3e 083f
00000190: 12ee 3e3f e95c 553f 9b5b b33f 7d5d 493f
000001a0: 21cc 9e3f 5c59 6c3f 5da3 8f3f 7ac8 8e3f
000001b0: 3504 a23f b53a 5a3f 11da c73f ce3d b73f
000001c0: 30cb 7b3f 2b6f 413f 0e78 5b3f 3d1f 8c3f
000001d0: 67a2 6b3f 8c91 a83f 00f4 8e3f cd3a 353f
000001e0: 4d31 863f 7558 9b3f 9c81 183f 1e82 8c3f
000001f0: 9b5c ae3f cbc5 aa3f 0654 4c3f 96fe 993f
0.39722487 0.8004175 1.1454847 1.2989639 1.3532726 1.1475513 1.3395762 0.770582
1.3531296 0.9584495 0.9797211 0.4702796 0.69850564 1.021779 1.5221407 1.2490025
0.6245814 1.6454487 1.0833794 0.8374388 1.0855596 0.9577593 1.6285585 1.0697676
1.134585 0.7037 0.8674932 0.82767093 0.9259871 0.8293714 0.116939254 1.2838176
0.7149616 1.5612144 1.4801936 1.014534 0.82028323 0.8307298 0.4380879 1.2752461
0.45549133 1.1207832 0.63118094 1.3717809 1.3240784 1.1295229 0.8394113 0.5159194
1.0898225 0.85163254 0.7446946 1.1493872 0.53170776 1.3322543 1.131657 0.5427006
1.6735152 1.1898485 0.994195 1.2384536 1.01066 1.0429139 0.6668443 0.8986724
0.9922023 1.628039 1.0799371 1.3307464 0.8918068 1.4830331 0.70050514 1.1685549
0.8727186 0.6848617 1.0160358 1.555084 0.73164994 1.1697414 1.275404 0.79567474
1.4469979 1.4591641 0.61618036 1.1143175 1.5418949 1.1255523 1.546073 1.1810544
1.320571 1.2050925 0.93063223 0.9843446 1.2944269 1.6426097 0.8385545 0.30856663
0.96480525 0.9597331 1.0099425 0.5321996 0.74582016 0.83344895 1.4012331 0.78658277
1.2406045 0.9232385 1.122173 1.115493 1.2657534 0.8524583 1.5613424 1.4315736
0.98356915 0.75560254 0.85730064 1.0947033 0.9204468 1.3169417 1.1168213 0.7079285
1.0483795 1.213637 0.5957277 1.0977209 1.3622011 1.3341612 0.7981571 1.2030818

encoder.conv_pos.batchnorm.bn.bias f4 [128]
00000000: 8f8a 4c3f d782 e3be 0488 78bd 9a67 863d
00000010: cdc4 883f efea 043e 044f e7be c4f6 453f
00000020: a9a5 f9be c63d 33bf 1e6a 623e 35ae 3dbe
00000030: 4a74 393e 79d8 d2bd 1441 b4be b46d 383f
00000040: 6e36 923e a7c2 0c3f 4c10 783e bb08 8a3e
00000050: 3d50 f8bd af58 d83d 0947 09be a49c f33e
00000060: e9b8 5c3e 1537 af3e cc38 35bc b754 e63d
00000070: 92e6 59be b73d b5be edc7 12be e88e 993e
00000080: 4fb9 07bb 126c 14be 1ace c93e 29c7 09bf
00000090: f1d2 3a3e 2962 dbbc d917 6bbd 7c4e 363f
000000a0: dd17 4f3f 9e7d 273f a566 043e bcdb dbbe
000000b0: 2cce 38be c8bd f0be ec4c e03e 37b2 823e
000000c0: 5744 0fbf bc4f 7e3e 0f30 383f 72a7 b63c
000000d0: 36f8 ba3e dd94 38bf 92c1 503e bbca e8be
000000e0: ef29 7abd 9b98 e73e e299 a63e 463b 833e
000000f0: 7e8a a2be c91a b6bc 854d 193e 82d5 cb3e
00000100: 5066 9ebe d8c1 31bf 89b6 4c3f 4f9c a13e
00000110: 776b 563e fcf0 19bd affd 9cbd 04f0 993e
00000120: d1a2 9dbe 9381 e03e 459a ccbe 8807 16be
00000130: f10d 4a3e 93e7 263f 52a9 58bf 5551 9f3f
00000140: 1e13 19bd a94f 0c3f cb74 073f 897b 423f
00000150: e2b4 093e c4d5 233e 2ded babe 3112 c7be
00000160: 85f2 b5be fae3 f43d 27e4 b43e a691 2d3f
00000170: 88db 24bf 834b abbe 9b5b 513f ac56 123d
00000180: 8fca 403d 858e 1b3f 5897 993d 9ac3 70bf
00000190: 03de 383e d741 a0be 6998 18bf 5a91 26bf
000001a0: c162 503f 06f9 b1bd 28a6 b53e 29f1 c2be
000001b0: be2c d6be d555 8dbe dd5a 053f 815e 1a3e
000001c0: 4d4a 9d3c c3fb 893d 06a9 a33e b7a8 9b3e
000001d0: 2561 acbd 2d59 0b3e 6230 813d 3559 e4bd
000001e0: 4951 023e 3f6c 343f 2882 723e 0e15 463e
000001f0: ceb7 9f3e bbe9 1b3f 56aa a23e b70d 95be
0.79898924 -0.4443576 -0.06067659 0.06562729 1.0685059 0.12980245 -0.45177472 0.7732966
-0.487592 -0.70016134 0.22110793 -0.18523486 0.18110767 -0.10295195 -0.352059 0.72042394
0.28557152 0.54984516 0.24224967 0.26959786 -0.12124679 0.1056379 -0.13406004 0.47580445
0.21554913 0.34221712 -0.011060905 0.11246627 -0.21279362 -0.35398647 -0.14334078 0.2999184
-0.0020709818 -0.1449435 0.39415056 -0.5381952 0.1824453 -0.026780205 -0.05739579 0.7121351
0.8089579 0.6542605 0.12929781 -0.42941082 -0.18047398 -0.47019792 0.43808687 0.25526592
-0.55963653 0.24835104 0.7194833 0.022296641 0.36517495 -0.7210215 0.20386341 -0.4546717
-0.061075147 0.45233616 0.32539278 0.2563116 -0.31746286 -0.022229569 0.14970978 0.3981133
-0.30937433 -0.6943641 0.79966027 0.31564566 0.20939432 -0.037583336 -0.07665574 0.3006593
-0.30788282 0.43848857 -0.39961448 -0.1465131 0.1973188 0.65197104 -0.8463336 1.2446696
-0.037371747 0.5480905 0.52912587 0.7596975 0.13447908 0.15999514 -0.36509076 -0.38881066
-0.3553659 0.119575456 0.35330316 0.67800367 -0.6439748 -0.33456048 0.81780404 0.035727188
0.047068175 0.6076434 0.0749957 -0.94048464 0.18053441 -0.31300232 -0.5960756 -0.6506554
0.81400687 -0.086900756 0.3547833 -0.38074616 -0.4183101 -0.27604547 0.5209177 0.15075113
0.019200468 0.06737473 0.31964892 0.30402157 -0.08416966 0.13608237 0.063080564 -0.111498274
0.1272632 0.7047767 0.23682463 0.19343969 0.3119492 0.6090352 0.3177058 -0.29112026

encoder.conv_pos.batchnorm.bn.running_mean f4 [128]
00000000: 594e e23f 25c0 2d40 d303 6f40 3427 5340
00000010: e7d6 1d40 c344 9540 753a 9340 cbf5 6840
00000020: 15e7 5740 11cd 2340 b6e2 5740 f4d9 f33f
00000030: 81f1 9540 208f 9140 45fd 4540 f1de 1640
00000040: 6631 b63f e860 6540 6c65 4f40 cad7 8240
00000050: c223 ea40 be6e 8e40 f456 d240 e2d0 cd40
00000060: 3f86 8a40 825a 7640 76f2 e13f a5cd a740
00000070: 43f9 a440 a4b5 6f40 3c25 ba3f 4dea 0540
00000080: e4cf d240 de92 0040 2b07 4640 e677 0e40
00000090: b89a 0240 2cc0 4940 8f91 fb3f 679b 8040
000000a0: 8f6e 0040 499b 1940 4cd5 1040 ff07 8a40
000000b0: d670 f440 9bc8 8240 9b33 eb40 5db6 2940
000000c0: 82bf 1a40 0fd7 2440 1708 be3f 1d49 7440
000000d0: 7f88 6340 f6c4 8440 70d4 0d40 3c05 e03f
000000e0: 637d 7940 7cbf 6040 5455 3540 f323 2141
000000f0: 2ed2 9540 64f1 1b40 dfe4 9240 d54e c440
00000100: fef0 8440 f65e 8140 27e2 7340 36bd 2640
00000110: 9ade c040 ff58 4441 f8b1 2e40 6ddc 0b41
00000120: 4ade 7940 1f60 b73f 23ee 6140 3302 8540
00000130: 0ae2 2240 8c49 0740 9cd4 4040 1ab7 4c40
00000140: 8d04 f140 11b5 1140 91fd c93f cc85 cf3f
00000150: a354 b740 af73 8440 ebff a040 7b89 8040
00000160: 3232 a040 0b3d 1440 b6cc 3a40 9312 0b40
00000170: d86b 9940 3cb9 5940 9c78 c13f b0ef 1840
00000180: 1bb3 b940 d7d7 f93f d8d7 3940 3425 fd3f
00000190: ffca e73f 2821 f53f 75ed 5540 26fe f33f
000001a0: cc97 8240 624d b93f fa91 3c40 601c 4840
000001b0: 88a2 d340 896c 0041 0306 1440 bc38 ab40
000001c0: 4d2d 3740 51a0 b33f 8290 1341 339a 2640
000001d0: f49b 0740 95fb b040 710f e540 a78a 1140
000001e0: d3ed d940 cefc 4c41 bba1 c340 c436 7140
000001f0: e95f 8f40 c1b4 c040 5d90 3340 7775 bb40
1.768016 2.7148526 3.7346084 3.2992678 2.4662416 4.664644 4.600886 3.640002
3.3734791 2.5593913 3.3732123 1.9050889 4.6857305 4.5487213 3.0935833 2.3573573
1.4233825 3.5840397 3.2405653 4.0888414 7.316865 4.4510183 6.5731144 6.4317484
4.3288875 3.8492742 1.7652118 5.243853 5.1554275 3.7454615 1.4542613 2.0924256
6.5878773 2.008964 3.0941875 2.226068 2.0406933 3.1523542 1.9653796 4.01897
2.006748 2.4001029 2.2630186 4.313476 7.638774 4.086988 7.3500495 2.6517556
2.4179387 2.5756261 1.4846219 3.8169625 3.555206 4.149043 2.2160912 1.7501597
3.898278 3.5116873 2.833333 10.071277 4.6819067 2.4366083 4.5904384 6.134623
4.154418 4.042842 3.8106782 2.6052985 6.027173 12.271728 2.7296124 8.741315
3.9041924 1.4326209 3.5301597 4.1565185 2.5450463 2.113864 3.0129766 3.1986756
7.5318055 2.2766764 1.5780507 1.6212707 5.7290816 4.1391215 5.03124 4.0167823
5.0061274 2.3162258 2.9187446 2.1730087 4.7944145 3.4019308 1.5114932 2.3896294
5.8031135 1.9518994 2.903799 1.9776978 1.8108824 1.9150743 3.3426182 1.9061935
4.08103 1.447674 2.9464097 3.1267319 6.6135902 8.026498 2.312867 5.3506756
2.86214 1.40333 9.22278 2.6031616 2.1188936 5.5307107 7.158135 2.2740877
6.8102813 12.81172 6.1134925 3.7689676 4.480458 6.0220647 2.8056862 5.858089

encoder.conv_pos.batchnorm.bn.running_var f4 [128]
00000000: 1b49 ec3e 9c12 803f d305 f23f 323e c43f
00000010: b409 553f fae6 3e40 c782 3940 f1ea e73f
00000020: 6c70 c53f d75a 643f c432 c83f b288 063f
00000030: 6f8e 3e40 51a4 3540 7419 a63f 0383 413f
00000040: 0b7b 953e ebdb de3f ba99 b73f db11 1140
00000050: c2d7 e840 3263 2d40 47ea bb40 967d b440
00000060: 73b3 2240 bf89 0040 be71 da3e c3cc 6f40
00000070: 66df 6640 7c6d f63f b9ad a53e a733 1a3f
00000080: 6f3d bd40 2ea5 0d3f e9e5 a73f b98b 353f
00000090: 0d49 153f 4bf5 ac3f 98a3 0e3f d01c 0c40
000000a0: 9544 0e3f c542 493f 5b63 323f 797c 2240
000000b0: 6a71 fe40 a00b 1140 a4ef ea40 e4d0 743f
000000c0: 44c5 533f 73d4 6a3f 6d67 a23e 410e 0140
000000d0: b1c1 dd3f 865d 1540 ce7b 2d3f 1092 df3e
000000e0: b11e 0540 2ef2 d53f 21f4 8f3f 11e6 5c41
000000f0: 5162 3e40 c3c9 573f 3013 3940 db47 a440
00000100: d3bd 1540 86d1 0d40 88f5 fb3f dbbe 6e3f
00000110: 0e91 9e40 cb1d a441 1cab 813f a407 2641
00000120: 1041 0440 6d12 973e 9b6c d83f f501 1640
00000130: 724d 673f a26a 1d3f a8e7 a03f 7d8b b13f
00000140: e48d f640 b9c8 383f 1e01 b93e 7629 c13e
00000150: 9742 8f40 76ac 1540 c3e7 5c40 0804 0d40
00000160: e2c2 5940 6ae1 3f3f c65e 943f a421 243f
00000170: a4ae 4940 f7cb c83f 753b a83e 5946 4d3f
00000180: 8de8 9240 8898 083f 6252 923f c536 103f
00000190: 8e08 ef3e df74 073f c9a0 c63f 3982 063f
000001a0: 267b 1040 1850 9a3e c581 973f e175 ab3f
000001b0: c4ae be40 8d39 0c41 d904 403f 28c0 7840
000001c0: cc1f 8e3f 1d4b 913e bc28 3941 a58e 703f
000001d0: 3f5b 1c3f f9c0 8440 3bbd de40 d585 3d3f
000001e0: 2716 ca40 1c8e b241 6062 a240 f773 f63f
000001f0: 243a 2e40 ac9d 9d40 8485 8c3f 27b1 9540
0.46149525 1.0005679 1.8908027 1.533148 0.8321793 2.9828477 2.898607 1.8118573
1.5424933 0.8920111 1.5640492 0.5255233 2.9774435 2.838154 1.2976518 0.75590533
0.29195437 1.7410864 1.4343789 2.2667148 7.2763376 2.7091794 5.8723483 5.6403303
2.5422027 2.0084074 0.42664903 3.7468727 3.6073852 1.9252162 0.32359102 0.60235065
5.913749 0.5533017 1.3117038 0.70916325 0.5831459 1.3512357 0.55718374 2.1892586
0.555734 0.7861751 0.69682854 2.5388472 7.9513445 2.2663345 7.341753 0.9563124
0.8272288 0.9173042 0.31719533 2.016495 1.7324735 2.3338332 0.67767036 0.43666124
2.0799983 1.6714532 1.1246377 13.806169 2.9747508 0.8429224 2.891796 5.1337714
2.339711 2.2159133 1.9684305 0.9325997 4.955207 20.514547 1.0130343 10.376865
2.066471 0.29506245 1.6908144 2.3438694 0.9035255 0.61490834 1.2570696 1.3870693
7.7048206 0.7218128 0.36133665 0.37726945 4.4768786 2.3386512 3.4516456 2.203371
3.4025197 0.7495333 1.1591423 0.6411383 3.1512842 1.5687245 0.32857862 0.80185467
4.5908875 0.53357744 1.1431391 0.5633357 0.46686214 0.52912706 1.5517818 0.52542454
2.2575164 0.30139232 1.1836478 1.3395349 5.9588337 8.7640505 0.75007397 3.8867283
1.1103454 0.2837762 11.572445 0.9396766 0.6107673 4.148556 6.9605994 0.74032336
6.315204 22.31939 5.0745087 1.925414 2.7222986 4.925497 1.0978246 4.677875

encoder.conv_pos.map_to_dir.weight f4 [128, 2]
00000000: 62e2 6b3f 2feb 3ebe 1a78 d4bf 1ecc 81bd
00000010: 112a 85bf 0c93 033f 532a 9bbf 3e5e 493e
00000020: fda7 ddbe 63e1 37bf 76da 0c3f 16b9 fc3e
00000030: 164f 71bf 4464 123f 7dfc 26bf a5ed 86be
00000040: e927 d13e daa6 123f 0207 cfbc bcdd c2bf
00000050: 3dd1 c6bc 7031 1940 ed87 05be d588 c8bf
00000060: 21d1 13bf cd15 3cbf bb10 2cbf cc1e 953e
00000070: 42f2 3ebf 7444 563e 5e11 0a3f 18d2 0d3f
00000080: 6e42 743f f18d 973e 0315 a1be e4a8 92bf
00000090: 4fd7 91be 4789 993f f0f8 693f 43ae 74be
000000a0: 7931 f5be 9737 f33e 9d2b 88bf 2263 99be
000000b0: 6f76 9f3c 6147 0f40 c9a0 c23d 1bf4 71bf
000000c0: a409 04bf e167 d6be ead7 12bf c770 00bf
000000d0: cdb9 4a3f d731 f8be 6ff0 75be 3bec 563f
000000e0: 162b f7be 465f a43e 5f18 13be 1d10 77bf
000000f0: e7d9 7ebf 79f9 7ebe 3096 2d3f 28e0 02bf
00000100: 84e8 863f 76a3 9e3e 466b 7ebe 258a 87bf
00000110: b644 973e 3a7d 9f3f 0dfb 883e 1cd7 cb3f
00000120: 2ee6 083f a9bf 77bf 41d0 683f 69df b23e
00000130: 804a efbe 94c5 e1be c97a 38bf 74ee 743e
00000140: 26b4 973e fa88 01bf c691 28bf 728a 4cbf
00000150: ae7f 8a3e ba54 8fbf fc68 913e f9b9 363f
00000160: a7e6 2a3f df02 d5be b38a f9bf fe33 cebd
00000170: 112b a8be 5bf1 0fbf bca0 283f 84f8 2abf
00000180: 9342 0b3f 62a2 c23e 77ce c53f bcba 96bd
00000190: eeab 3e3e 7de2 c7bf 7983 d2bd 510f 7fbf
000001a0: 3b38 4a3f 41f1 f83e 6884 03bf 5890 b8be
000001b0: c03a 12be 7a9e 653f 612f 2b3f 710d a53e
000001c0: 4ce3 f63e 8ce2 0f3f 4964 3a3f f4fd a4be
000001d0: 2734 54bf 3f95 bcbe 39b8 eabd 1ba1 2540
000001e0: dab9 30bf bf64 13bf 158b 2c3f 6d4e 94be
000001f0: 1489 d5be cff4 7fbf 3471 4a3f bd66 b7be
00000200: 1a68 5dbf abb8 233e 0ad7 00bd 22e3 4fbf
00000210: 5e11 563f f534 9ebe 3274 0c3f e630 efbe
00000220: bcfe 17bf 2777 0e3f f42b 24bf 2a85 9e3e
00000230: 30d5 d8be 4fae 073f 7282 f8be 9731 093f
00000240: 3cb6 16bf f269 b3be c657 40bf cb6d 213f
00000250: 2368 1c3f 8690 9abe 197a 013f 808e 143f
00000260: ed76 293f ff78 0e3f 023f 6cbf 61da 48be
00000270: 8370 6b3f 6007 f73e f33e d9be c7d8 553f
00000280: 1a2b 033f d452 b93e fc97 9e3f ec54 68be
00000290: 3a1e 093f 2672 4c3e 4dfe bfbe dc87 4b3f
000002a0: c3fb 63bf 65c3 9a3e 250d e13e fdce 753f
000002b0: 09cd 33be 3ebc 813f 31a3 2abf 69fc b5be
000002c0: 8e65 4cbf 50a6 ffbe e96d c73e 8b76 ecbe
000002d0: 42ae 8cbe ad76 893f 52c6 4fbf cb2e 663e
000002e0: cc04 8c3f 7f05 f53e c05f d33e a23f cd3e
000002f0: 82b7 3abf 7431 493f 83e5 28be 3397 773f
00000300: b6a1 39bf ed1d d53e 5bdf f2be 01c6 583f
00000310: 5745 54bf 87ea b83e 3def 063f 0490 fabe
00000320: 0874 0a3e 0d13 ce3f cfb3 8dba 5bf0 07c0
00000330: 0893 e63e b6bc 3a3f 910d bfbe 826a 84bf
00000340: 3ebe 94be 8a3c 79bf d2fa fd3e 5bb6 8a3f
00000350: b5ab 39bf c53d 093f 27ab 78be 0d74 15bf
00000360: 6c73 823f 41e1 95be 7fad a63f 3773 d53d
00000370: 2cae 1e3f 3009 393f 8211 7abf 787b 07bf
00000380: 2149 73be ed5d 3ebf ca7f 6d3f 00d6 403e
00000390: 7a8d 643f 9996 533e 5e4c 003f ac5c 4c3f
000003a0: 5abb 0c3f e867 113f fb16 433f 8973 343f
000003b0: 639a 04bf 59f1 dcbe 1df5 123f 267c 3fbf
000003c0: c886 853f 428f 7c3e 0aa6 723f 67ef ff3e
000003d0: 2360 73bf b594 89be f853 b1bd 8bbd 9abf
000003e0: 529d e0be 3807 013f b689 5cbe cfbc 83bf
000003f0: e05e 5540 e066 a13d 88bd 0dbf a0cb 8b3e
0.9214231 -0.18644403 -1.6599152 -0.063377604 -1.0403463 0.5139625 -1.2122291 0.19664857
-0.43292227 -0.7182829 0.55020845 0.4935996 -0.942613 0.57184243 -0.65229017 -0.26353183
0.40850762 0.57285845 -0.025271896 -1.5223918 -0.024269694 2.3936424 -0.13040133 -1.5666758
-0.5774098 -0.73470765 -0.6721303 0.2912506 -0.74588406 0.2092455 0.5393275 0.553987
0.95413864 0.2960048 -0.31461343 -1.1457791 -0.2848458 1.1995019 0.91395473 -0.238946
-0.47889307 0.4750335 -1.063831 -0.29958445 0.019465653 2.2387316 0.095033236 -0.945131
-0.5157721 -0.41876128 -0.5736071 -0.50172085 0.7918976 -0.48475525 -0.240175 0.8395421
-0.4827506 0.32103938 -0.14364766 -0.9650896 -0.9955124 -0.24899854 0.6780729 -0.51123285
1.0539708 0.30984086 -0.24845609 -1.0589033 0.2954461 1.2460091 0.26754037 1.5925021
0.53476226 -0.96776825 0.9094277 0.34936073 -0.46736526 -0.44096053 -0.72062355 0.23919088
0.2962963 -0.50599635 -0.6584743 -0.7989875 0.27050537 -1.1197731 0.2840041 0.7137752
0.667582 -0.41603753 -1.9495453 -0.100685105 -0.32845357 -0.56227654 0.6587026 -0.66785455
0.5439846 0.38014513 1.5453633 -0.073598355 0.18620273 -1.5615994 -0.10278983 -0.99632746
0.7899205 0.48621562 -0.5137391 -0.36047626 -0.14280224 0.8969494 0.6686917 0.32236817
0.4822029 0.5620506 0.72809273 -0.32225 -0.8289208 -0.36832616 -0.11460919 2.587958
-0.69033587 -0.575756 0.6739972 -0.28966084 -0.41706145 -0.99982923 0.79078984 -0.3582057
-0.8648697 0.15988414 -0.031455077 -0.8120595 0.8362025 -0.30899778 0.548648 -0.46716994
-0.5937307 0.5565056 -0.6412957 0.3096097 -0.4235015 0.5300035 -0.48537022 0.53591293
-0.5887182 -0.35041767 -0.7513393 0.63058156 0.610964 -0.30188388 0.5057693 0.5802994
0.6619709 0.55653375 -0.9228364 -0.19614555 0.91968554 0.48247814 -0.4243084 0.835339
0.5123764 0.36196005 1.2390132 -0.22688645 0.5356175 0.19965419 -0.37498704 0.7950418
-0.8905603 0.302272 0.4395534 0.96018964 -0.17558683 1.0135572 -0.6665526 -0.35544136
-0.7984246 -0.49931574 0.38951042 -0.4618419 -0.27476698 1.0739342 -0.8116199 0.22478788
1.0938964 0.47855756 0.4128399 0.4008761 -0.7293626 0.78591084 -0.16493802 0.96715087
-0.72512376 0.41624394 -0.47436032 0.8467713 -0.82918304 0.3611643 0.527088 -0.48938
0.13520825 1.6099564 -0.0010811033 -2.1240451 0.4503405 0.729442 -0.37315038 -1.0345004
-0.29051393 -0.97358 0.49605423 1.08369 -0.7252763 0.5360988 -0.2428404 -0.58380204
1.0191474 -0.29273418 1.3021697 0.10422366 0.61984515 0.72279644 -0.97682965 -0.52922773
-0.23758365 -0.7436207 0.92773116 0.18831635 0.89278376 0.20662917 0.5011653 0.79828906
0.54973376 0.56799173 0.7620694 0.7048879 -0.51798075 -0.43152884 0.57405263 -0.7479881
1.0431757 0.24664024 0.94784606 0.49987337 -0.9506857 -0.26871267 -0.08658594 -1.2089094
-0.43870026 0.5040164 -0.21536908 -1.0291995 3.3339157 0.0788095 -0.55367327 0.2730379

encoder.conv_c.map_to_feat.weight f4 [32, 512]
00000000: b309 dc3e 46a5 16bd d9fe 88bf aefb dbbe
00000010: 3c7c 87be 73c7 8bbf 4f66 99be 318d 3bbf
00000020: 9118 143e 268f 5cbe 14e0 32be bb41 683f
00000030: 6d68 7bbd f685 56bf a826 10c0 a539 eabf
00000040: 3ac5 8bbd c7c0 01bd 900a e03d e394 10be
00000050: 787d 00bd d2f5 2e3f 3049 a03e 77b6 453e
00000060: d735 5a3f ad02 debe 670f 8cbf 833f df3e
00000070: e3cc 103c a3fd eb3e 070c 323f 9da0 6f3f
00000080: bb8b 113f 7818 3fbf 002e 55bb d0c6 133f
00000090: ab9e 8dbf f728 263e 4cac 76be e933 ddbf
000000a0: a9cf 6a3f e3a2 453f 6f8d a4bf 95be ebbe
000000b0: ca11 22be 08e8 54bf 16a5 8bbe 39d7 8dbe
000000c0: 5e47 0f3f 460d babf 3931 c93e ef1a 9cbe
000000d0: c773 9b3e de74 44bf 95a4 0cbe 9aaf 04c0
000000e0: 2e1c 33bf 7e7c 34be 581c 18bf a850 983e
000000f0: 62a2 92bf a6e7 843f cfa4 c1bf 5f9f 393d
00000100: a782 093e f173 0dbf 91db b9be c801 58bf
00000110: 2e8a a63e 8e79 58bf 4b8e 963e a5f0 c83e
00000120: 25de 983d 8202 073f d62e ba3e 9368 13bf
00000130: 7957 78bf ea9b 80be 236b cdbe 26b9 163f
00000140: 3a33 223f 6c64 40bf c46a 793f 2e2f 2a3f
00000150: 671e 1ebf 8638 ac3e fc2c 40bd 52dc d4be
00000160: 81b6 6f3f 7c70 d1bf 6e84 34bd 0e43 97bf
00000170: 2538 22bf 12c9 9c3e 3696 58bf 6961 4fbf
00000180: 5749 f73e 6a44 59bc 92ea 933c aba4 0b3e
00000190: 3cf5 6f3e 9afd 92bd 1bf6 8fbf 317b 343f
000001a0: fc48 fd3e fafb a33f 7d3e 65be 5b2e 3dbf
000001b0: 8baa 89bf 4f7a b53f f799 143f ffb6 6e3e
000001c0: 8c75 0b3f d111 51be 6c6b 1a3d 325e ab3f
000001d0: f609 85be 357f 68bf e3cf cabf 44cd 48bf
000001e0: bf98 7dbf 42a2 18bf 5c96 3cbd f9cb 2cbf
000001f0: 8624 703e 2302 633d ed32 9c3e b87e 1f3f
00000200: 11f3 c13e 4e2b 183e 9da6 fabe 6654 31be
00000210: 4faf 543f 23ec 8b3d 57fb 9abf 4ae4 16bd
00000220: 9cf0 923d 70e9 b63c 172d fb3c 5b76 3e3f
00000230: 8b28 d0bd 999c d63e e25a 3d3e a000 a43d
00000240: 17e3 47bf d4e6 79bf 30d0 e6bd 217d 85bc
00000250: 6f03 0abd 95a7 74bf 07aa c6bd 7533 b23e
00000260: c2b1 b5be 604b 99bc 57e3 68be 8bae 713e
00000270: a7d4 b03e aedc 8ebf a44c adbd 453c f9bc
00000280: 5079 41be 4295 5e3e 0b26 9f3e ac27 9e3c
00000290: 9e09 31bf 3fc0 cb3e 9eb8 61bc 924d 373d
000002a0: abd5 99be 1a46 93bd 3808 ca3e d0a0 e7bd
000002b0: c612 93be a814 8dbe 5c16 b8be 73b9 b13e
000002c0: faba 4c3e 3ed4 0b3e 8a37 7e3e ebf0 423e
000002d0: 66f8 f13b 99a5 b3bd 8fda 5bbe a29f 953e
000002e0: 5617 93be 2794 8b3e 6449 6e3d b538 1d3d
000002f0: 3fb5 c43e 8a07 b2be a3a9 ab3e d683 aebe
00000300: 808a 653e f211 acbd 7ddf 00bf edf3 013f
00000310: 8b47 cf3c a9a2 9f3e 6cc8 db3e 1b27 a3bd
00000320: 7aba aabe 6825 e1be 1f4d 29be 1cc9 1b3e
00000330: c81a 8dbe 89fe 1e3f 780f 68bd 2627 073f
00000340: 89cc 9f3e 2e37 293e 1b1c fabe 9306 143e
00000350: bb95 353e c1d5 973d 98be a83e 6f5c adbd
00000360: f7ad 9a3e eeea 613e 5456 1e3d 75f5 debd
00000370: 8bcb 74bf 81c1 de3e 401f 9b3e cd3e 003e
00000380: b83c 75be 677b cbbe 9966 c63d 9940 2a3e
00000390: 9681 2f3f e8e1 3ebe f6b1 03bf 86b0 9fbd
000003a0: a90b a7bc 3476 98bd f888 e53e 2a85 053e
000003b0: ee3a a1be 707e 40be 7d7c aabe d677 95bd
000003c0: 44d8 2bbd b5d7 85be 1bfd 083f aef3 23be
000003d0: 50a8 793e 56f5 0ebf db8d 913e c669 f83c
000003e0: 5207 963a 68d7 e0be 5b2c 553e ca36 18bd
000003f0: a924 bcbe 95b3 933e ab95 953e e70b fcbe
0.4297615 -0.03677871 -1.0702773 -0.42965454 -0.2646197 -1.0920242 -0.29960868 -0.73262316
0.14462496 -0.21538982 -0.17468292 0.90725297 -0.061378885 -0.8379816 -2.2523594 -1.8298842
-0.06824727 -0.031677987 0.10939515 -0.14119296 -0.031369656 0.6834384 0.31305838 0.19307886
0.85238403 -0.43361416 -1.09422 0.43603143 0.008837911 0.46091947 0.695496 0.9360445
0.56853837 -0.7464671 -0.003252864 0.5772524 -1.1064047 0.16226564 -0.24089164 -1.7281467
0.91723114 0.7720167 -1.2855662 -0.4604384 -0.15827098 -0.8316655 -0.27274388 -0.27703264
0.5596827 -1.4535301 0.39295366 -0.304893 0.3036177 -0.76740825 -0.13734658 -2.0732179
-0.69964874 -0.17625615 -0.5941825 0.29749036 -1.1455805 1.0383193 -1.512842 0.045318004
0.13428746 -0.5525504 -0.36300328 -0.8437772 0.32527298 -0.8456048 0.29405436 0.39246097
0.07464246 0.527382 0.36363858 -0.5758144 -0.9700847 -0.25118953 -0.401208 0.58876264
0.63359416 -0.7515323 0.97428536 0.6647824 -0.6176514 0.33636874 -0.0469179 -0.4157434
0.93637854 -1.6362453 -0.044071607 -1.1817338 -0.6336692 0.30622154 -0.84604204 -0.8100801
0.4829814 -0.01326094 0.018056188 0.13637035 0.23433393 -0.07177277 -1.124698 0.70500475
0.49469745 1.2811272 -0.22387119 -0.7389886 -1.075517 1.4177951 0.5804743 0.23311995
0.5447624 -0.20416953 0.0377001 1.3388121 -0.25984162 -0.908191 -1.5844692 -0.7843821
-0.990612 -0.59622586 -0.04604183 -0.6749874 0.23451433 0.05542196 0.30507603 0.6230273
0.37880757 0.1486027 -0.4895524 -0.17317352 0.8308 0.06832149 -1.2107953 -0.036838807
0.07174799 0.022328109 0.030661149 0.74399346 -0.10163983 0.4191635 0.184917 0.08007932
-0.78080887 -0.9761784 -0.11270177 -0.016295018 -0.03369468 -0.9556821 -0.09700399 0.34804884
-0.3548718 -0.0187127 -0.22742973 0.23601739 0.3453724 -1.1161096 -0.08461884 -0.030424247
-0.18893933 0.21736625 0.31083712 0.019306026 -0.691553 0.3979511 -0.013776926 0.04475171
-0.30045828 -0.07191105 0.39459395 -0.113099694 -0.2872526 -0.27554822 -0.3595456 0.347118
0.19993201 0.13655183 0.24825874 0.19037215 0.0073843477 -0.087718196 -0.21470092 0.29223353
-0.2872874 0.2726147 0.05817546 0.03838416 0.3841953 -0.34771377 0.3352786 -0.34084958
0.22416115 -0.0840186 -0.50341016 0.50762826 0.025302669 0.31178787 0.42926347 -0.07966443
-0.33345395 -0.4397385 -0.16533326 0.15213436 -0.27559495 0.6210714 -0.056655377 0.5279411
0.31210735 0.16524956 -0.48849568 0.14455633 0.17732899 0.07413817 0.32957911 -0.08464896
0.3021085 0.22062275 0.038656548 -0.10886661 -0.9562308 0.43507007 0.3029728 0.12523957
-0.23948944 -0.39742586 0.09687538 0.16626205 0.6855711 -0.18640864 -0.5144342 -0.07797341
-0.020391302 -0.074444205 0.4483106 0.1303908 -0.31490272 -0.18798232 -0.33298102 -0.072982475
-0.041954294 -0.26141134 0.5351121 -0.16010925 0.24380612 -0.558431 0.2842854 0.030323874
0.0011446273 -0.43914342 0.20817702 -0.037161626 -0.3674672 0.28847948 0.2921575 -0.4922783

encoder.conv_c.batchnorm.bn.weight f4 [32]
00000000: e476 b63f dffa 1040 3cbd 1c40 55c2 1d40
00000010: a9e1 1540 0a29 4e40 dbc9 2a40 b491 2a40
00000020: acf4 f83f 0c35 9d3f 9921 ab3f 8536 4940
00000030: a9d0 1240 a1cd df3f b69f 3940 6d59 d93f
00000040: 3523 2140 fe46 f73f 584a 1940 9f03 1840
00000050: 18ab 4140 f5f5 ce3e 1c89 0640 3440 1040
00000060: f5f9 ab3f ee2c 1b40 1c3f e33f 8ed1 3a40
00000070: 10c0 cd3f 3a33 da3f 7806 6a40 e395 fc3f
1.4255033 2.265312 2.44905 2.464986 2.3418982 3.2212548 2.6685703 2.665143
1.9449668 1.2281814 1.3369628 3.1439526 2.2939856 1.7484628 2.900373 1.6980416
2.5177739 1.931854 2.3951626 2.375221 3.0260677 0.40422025 2.1021185 2.2539186
1.3435656 2.4246173 1.7753634 2.9190402 1.6074238 1.7046883 3.6566448 1.9733242

encoder.conv_c.batchnorm.bn.bias f4 [32]
00000000: 7896 8cbf f2af 3cbd de67 473d e4ea dd3f
00000010: a062 913f cb3a 323f bd2e 4dbf 51b5 09bf
00000020: bd1e 6abf 7b7e b5bf 71e9 cebf 424d bc3f
00000030: e26e 8e3f df14 b8bf e15e 9b3e 59ab 1fbf
00000040: 26df a43c e0e1 4d3f 1479 b13e 5496 92bf
00000050: 898c a23f bee3 2bc0 cfc6 5d3f 5e13 4c3f
00000060: a65f a43f c64e edbf ab88 70bd 67a4 76bf
00000070: 8b9e d3bf 6b74 1bc0 be31 643f 41c8 5b3f
-1.098342 -0.046066232 0.04868304 1.7337308 1.1358223 0.6962096 -0.8014944 -0.5379229
-0.9145315 -1.4179224 -1.6164991 1.4711077 1.1127589 -1.4381369 0.30345824 -0.6237083
0.020125937 0.8042278 0.34662688 -1.1452127 1.2699138 -2.6857753 0.8663148 0.7971705
1.284169 -1.8539665 -0.058724087 -0.9634461 -1.6532758 -2.4289806 0.891384 0.8585244

encoder.conv_c.batchnorm.bn.running_mean f4 [32]
00000000: 3e44 0441 0631 e540 8bf1 8340 7e79 9040
00000010: 5884 8440 d52b a540 c518 f940 500d cd40
00000020: e3d4 9d40 9f00 ee40 ffe8 fa40 050f 8b40
00000030: cc5e 8d40 b070 0341 f5c9 a940 8cb1 ad40
00000040: 2840 c940 c850 8340 1fb5 d440 c594 aa40
00000050: 0f34 7540 64d3 9e40 edfd ab40 63a7 f440
00000060: 5017 8840 1c95 0041 8feb 9c40 cdd6 bf40
00000070: 5868 d540 6545 3541 2de4 7f40 1494 9440
8.266661 7.1622343 4.123235 4.5148306 4.1411552 5.1616006 7.7842736 6.407875
4.932237 7.437576 7.840942 4.3455834 4.417822 8.215012 5.305903 5.427923
6.2890816 4.103611 6.6471095 5.3306603 3.8313024 4.9633045 5.374747 7.645433
4.252846 8.036404 4.9037547 5.994971 6.6689873 11.329442 3.9983017 4.643076

encoder.conv_c.batchnorm.bn.running_var f4 [32]
00000000: b9a8 2441 3eec c240 73dd 0541 b3d2 0a41
00000010: a8e9 6241 669d f440 9dc1 d03f b814 1b41
00000020: 3eb9 0d41 a419 2741 e7de d340 acad 3d41
00000030: a0ac da41 84b8 e641 2cf9 d340 cfce 0041
00000040: c58f 7e41 8fcb e140 9d49 3341 9564 cb41
00000050: bc39 2840 8ccd aa41 dad1 d640 5aa4 6140
00000060: a819 8840 ac7f d440 7a16 c340 5cd4 fb3f
00000070: 2d1f 3741 cb6d c440 2563 0241 d49b ba40
10.291192 6.091338 8.366565 8.67644 14.182045 7.6442137 1.6309086 9.692558
8.857725 10.44376 6.6209598 11.8549 27.33429 28.840096 6.6241665 8.05049
15.9101 7.0560985 11.205472 25.424112 2.6285238 21.350365 6.7131166 3.5256562
4.253132 6.640585 6.0964937 1.9674182 11.445111 6.1384025 8.149205 5.831522

encoder.conv_c.map_to_dir.weight f4 [1, 512]
00000000: 1e57 1d3f 4b27 8c3e 379e dcbe af3e 80bf
00000010: 559f 66bd 446e 163e 1490 4bbe 3d51 89bf
00000020: b2ba 3b3f 1f5e 50be 2d00 a6be c2a8 bebe
00000030: 789c 80be d5b3 90be b69a a33e cd36 66bd
00000040: 9143 23bf 9904 d039 dffd 2fbf 067a c03d
00000050: 3e56 403f 383f 00be 4946 88be 1d84 ae3f
00000060: 766c 44bf df8b b43e 6b0b 29bd e089 afbf
00000070: a4d1 14bf 8757 8c3e 8639 45bf 84cd f4be
00000080: e5c3 553f 3a22 5d3f 4842 e93e a00e 86bd
00000090: 79c4 553d 6b74 48bf a945 a63d b3f7 6b3f
000000a0: 4d96 233e 0f26 03bf 4b21 863e 0b73 463f
000000b0: 9eb6 e3bf 3907 883e e34a 2e3f 22b9 fcbd
000000c0: 4212 34bd ee4d 14bf d85d 8abe 3211 383f
000000d0: b09d a43e 090c 873e c2f6 3abf 9dd7 49bf
000000e0: 9dd0 043f 03e3 8d3e 0453 b5be 47cc d43e
000000f0: c7b4 533f 5daf 80bf 39e5 cc3d 9bcf 9bbd
00000100: 1a3b 863f 34e8 42bf 6d35 303f 0a95 993f
00000110: 9b42 d53f 1fd6 f73e 415c 71bf 983b b2be
00000120: a25a 763f c932 4ebe 7c14 b2be fbc8 d33e
00000130: 09e0 0bbf bf78 82bf 14d6 e53b 62f5 a23e
00000140: f6fa a4be 8183 b8be eef0 1d3d cc3b 9dbf
00000150: 3ee7 753f 0b34 dc3d b242 3f3c 017a 173f
00000160: 4979 37bf bb5d 09bf 9ad2 803f 562d 9f3d
00000170: 1f95 ce3f 31a4 8ebf 1943 d13f e67d 553e
00000180: 5bd9 563f 8377 c83e b398 233f 1273 963e
00000190: 0f53 0cbf 8519 fcbd a193 aabe 5a78 ccbd
000001a0: 4837 21bf 49b7 5b3f c01d 833f f65b 17bf
000001b0: 7834 41be adc0 833f b4c8 a7bd 07fa 983f
000001c0: cfaf 99be 463c f03e 8411 94bf 6a97 333e
000001d0: 7106 013e 8fec a1bd b375 0d3f f3a7 f3be
000001e0: 6155 3e3f f484 1140 3316 bcbf 161f 43bf
000001f0: 3529 39bf 56b0 ffbb dcaf e63f 9dd8 6bbf
00000200: e085 abbe ca27 9dbe eab3 e53e 6935 613e
00000210: 428e 5fbe 154d 063e cca2 34be 8016 fe3e
00000220: 7ee8 c6be be17 16bf 2cbd 923d 672f 74be
00000230: 9a05 513d 5aab 4f3e 80c7 28bf eb93 8abd
00000240: c784 b4ba d2ec b33c 1e2e 90be 5483 80bd
00000250: 8844 8e3e 7903 133f cb60 3ebe 43ea 1e3f
00000260: 2443 eebd d8a2 42be 1a5e f0be 650e 053f
00000270: 123f e03e 73c0 a13e 283a 47bd 2f60 f23e
00000280: 4740 c1be 53b7 933d fc03 6f3e 2d9f b03e
00000290: a6b8 dcbe 9191 1ebf 219f b4be e561 bf3d
000002a0: 4880 7dbd 77b5 883e 37c7 8a3e 2e3e cc3e
000002b0: 1f32 babe e8e3 973e 8d3c cc3e 70d1 2bbd
000002c0: a1ff 2c3f 697e 9a3e 6841 c83d f1c2 debd
000002d0: 85a2 183e c7ad f43e 96b1 8fbe 24e4 8f3e
000002e0: 2f0b 6fbe decb 8b3d e159 003e f744 f73d
000002f0: 1db2 abbe 230e 8c3e 2537 59be f5b0 cf3d
00000300: 2b1b a63e 7135 1f3f d4b0 39be 3a5c 5e3d
00000310: 4acf babc c6b7 8bbe 3551 893e 98e0 6d3e
00000320: 9a3e 673e 6138 89bf 5a99 f93d 6211 adbe
00000330: de09 9a3e 1c3e 96bd e5cf f53e 7fef 203e
00000340: 5caf 4bbe fff8 b7be 64e5 06be fd93 9ebd
00000350: bb16 3e3f 0073 29be 95d7 27be 94cb 323e
00000360: 1785 853e 298d 333e df82 56be 757a 76be
00000370: 5492 b43d e2b7 41bf 6789 473e c781 8f3d
00000380: 7f58 153f 70a5 d63c e9e0 3f3e e4ef 33bc
00000390: 540f b83e db07 a2bd 2f52 c0be 91f3 64be
000003a0: 1264 0b3f 6d7a a5be 5553 8c3b d4e8 0ebe
000003b0: 49e6 193d 8a17 2bbe 29f4 493f fa9f 543e
000003c0: 040e 8b3f 8805 733c 9ece 183e c10f eabd
000003d0: 050d bc3e bab4 333d 5124 bc3d 0f49 6b3e
000003e0: 9975 e93e c4e6 b7bd ebc4 91be 9762 d33d
000003f0: 9b76 b4be 5e34 123f 442f 8bbe 278f a7be
0.61461055 0.27373728 -0.43089458 -1.001913 -0.056304295 0.146905 -0.1987918 -1.0727917
0.7333175 -0.20348404 -0.3242201 -0.37238127 -0.25119376 -0.282622 0.31953973 -0.056204606
-0.63774973 0.00039676277 -0.6874675 0.09398274 0.75131595 -0.12524116 -0.26616123 1.3634068
-0.76728 0.35262963 -0.041270655 -1.3713951 -0.58132386 0.27410528 -0.770409 -0.47813046
0.83502036 0.8638035 0.4555838 -0.06545758 0.052189324 -0.7830264 0.08118755 0.92174834
0.15975304 -0.5122995 0.26197276 0.7751929 -1.7790105 0.2656801 0.6808302 -0.12339999
-0.043962725 -0.5793141 -0.27024722 0.7190124 0.32151556 0.2637637 -0.7303277 -0.78844625
0.5188082 0.2771226 -0.35414898 0.415621 0.8269772 -1.0053517 0.10004658 -0.07607957
1.0486786 -0.76135564 0.6883152 1.1998608 1.6660951 0.4840555 -0.94281393 -0.3481109
0.96232045 -0.2013656 -0.34781253 0.41364273 -0.54638726 -1.0193099 0.0070140455 0.31827837
-0.32222718 -0.3603783 0.038559847 -1.2283874 0.9605597 0.10752114 0.011673616 0.5917054
-0.7166944 -0.53658646 1.006427 0.07772319 1.6139258 -1.1143857 1.6348602 0.20848808
0.8392541 0.3915368 0.63904876 0.29384667 -0.5481424 -0.12309555 -0.33315757 -0.09983893
-0.6297498 0.85826546 1.0243454 -0.59124696 -0.18867671 1.0293175 -0.08192578 1.1951302
-0.30016944 0.46920985 -1.1567845 0.17538229 0.12600113 -0.07906448 0.5525772 -0.47589073
0.7434903 2.2737398 -1.4694275 -0.7621931 -0.723285 -0.0078030033 1.8022418 -0.921274
-0.33500576 -0.3069442 0.44863826 0.2199303 -0.21831611 0.13115342 -0.17640227 0.4962654
-0.38849252 -0.5862998 0.07164988 -0.23846208 0.051030733 0.20280209 -0.6592941 -0.06766494
-0.0013772481 0.02196351 -0.28160185 -0.06275049 0.2778666 0.57427174 -0.18591611 0.62076205
-0.116339 -0.19007432 -0.46946794 0.5197509 0.4379812 0.3159214 -0.048639446 0.47339007
-0.37744352 0.07212701 0.23341364 0.3449644 -0.43109626 -0.61940867 -0.35277656 0.09344844
-0.061889917 0.26700947 0.27105114 0.3989119 -0.36366364 0.29666066 0.39889947 -0.041947782
0.6757756 0.30174568 0.097781 -0.10877026 0.14905746 0.47788832 -0.28065175 0.28103745
-0.2334411 0.06825994 0.12534286 0.12073701 -0.33534327 0.27354535 -0.21212442 0.10141174
0.32442603 0.6219092 -0.18133861 0.054287173 -0.022803921 -0.27288646 0.2681977 0.23230207
0.22582474 -1.072033 0.121874526 -0.33802325 0.30085653 -0.07336065 0.48010173 0.1571636
-0.19891113 -0.35932156 -0.13173443 -0.0774307 0.74253434 -0.16547775 -0.16390832 0.17460471
0.26078102 0.17534317 -0.20948361 -0.24070151 0.088169724 -0.7567121 0.19486009 0.07007175
0.5833816 0.026201934 0.1873814 -0.010982487 0.35949194 -0.079116546 -0.375627 -0.22358538
0.5444957 -0.32319966 0.004282395 -0.13956004 0.037573133 -0.16708198 0.78888184 0.20764151
1.0863652 0.014832862 0.14922568 -0.11428786 0.36728683 0.043873526 0.09186614 0.22977088
0.45597532 -0.08979562 -0.2847055 0.10321539 -0.3524674 0.57111156 -0.27184498 -0.32726404

generator.z_in.map_to_feat.weight f4 [32, 32]
00000000: 53c4 3c3f 8291 073f f0cb 6dbf 8947 2b3e
00000010: 094d 083e be7e e13d cf73 09bf 4c40 153d
00000020: cac0 0640 e9ae adbf 553b 273f fb5e 83be
00000030: 3d9b 3a3f 3493 6bbe 1bd2 023f 3169 2c3f
00000040: 0675 39bf ba93 5bbe eebe 68be 3dc4 62bf
00000050: 84dd 393e 9866 9bbf 3a99 2dbd ed64 98bd
00000060: a734 87bf d421 aabd b631 4abf 5a88 42be
00000070: 16e4 963f ef69 bf3f 5d82 883e ff4b 38bf
00000080: 23bc c73d f8ad 96bf fa8f b43e 3434 1c3d
00000090: e878 8ebe d96a debd ff58 833d cf5e 38be
000000a0: c5b1 10bd ffe3 87bf 7c52 963e 3ad3 503d
000000b0: f008 fcbd d75d 0fbe 49cf b63d 1da0 eebd
000000c0: 32ef 08bf 4964 313e f190 b9bd 237a 5e3f
000000d0: cfac 903e 3a7c 7d3e 15a6 c83e 464f e2be
000000e0: 0322 b6bd 91d6 2b40 db9b d4be 92d7 c6be
000000f0: 8462 94bf 6aa9 323f e25c f63c a6fe 9a3d
00000100: d7ad e33f 92d2 00be 7943 6ebf ec74 ab39
00000110: ae45 60be 8118 903d 7e02 d1bc 3bae 6cbb
00000120: 6cf1 aa3f 9b54 853e 269d a23f 38de 2ebf
00000130: 4923 b13c e226 1cc0 8f00 003f 670f 503f
00000140: a5f7 82bf a71d 6ebe bcb0 2640 8f78 d63e
00000150: 730f 30bc 01c3 59be edd0 06bf c5ee e9be
00000160: 9a6e adbe 4dd5 2abb e36f e0be 86de a63d
00000170: ca20 3b3f 01fa 1d40 e7b2 c5be c078 7a3e
00000180: 7d5d bfbe dc5f 4d3f 5896 62bd 4c91 a6bf
00000190: f843 b23e c9b6 85be c919 acbe 8dcd f4bf
000001a0: 6a5f 84be 9eaf 4fbd 2028 bf3d fed0 1e3f
000001b0: ed99 10be 8311 6e3d f0da 743f 0dc8 f93d
000001c0: 5548 aebe 2bb6 bf3e 50b5 d3be 3087 fc3e
000001d0: dc57 68be 0f41 81be f90f c43e 223d 9fbf
000001e0: dc2a bebe bd91 19be 2147 2c3f 4e16 263f
000001f0: cf64 6abf a417 9fbd d6fd 7c3e 09fb d73e
00000200: 3c79 173f 2a8d 07be 2563 ffbd 9677 943d
00000210: 1ea9 753f 80ec 1bbe 9465 b5be 1606 743d
00000220: ec53 f33e 274a 80be 5aee e53e 2b99 393f
00000230: 85d5 d5bf 4629 bd3e 0328 1cbe 952b be3f
00000240: d6db bc3f 37da 273f 7ac9 b93e 84c3 d7be
00000250: 587a b9bc 9b8a bebe b200 73bf 03f5 3d3d
00000260: ef4b 42bf 806f 2e3f 2a2e 8fbf a12c 033f
00000270: d798 02bf 080f fdbe c82f cebe 1bce 2a3d
00000280: 6f7f e03d c20e a6be a56a 553e 6857 81be
00000290: dd1a 723f 47f3 0240 cee6 e13e af98 0c3e
000002a0: 18e4 32be 7b3e 543e e1d8 323e 8289 00be
000002b0: c743 9aba d2d9 5c3d ebee cbbe ffa0 d93c
000002c0: 6de4 38bf 8270 91bf ad10 59be ddbc 7e3d
000002d0: 2294 09bf 71a6 73bc 84bc 143f 39ac d2be
000002e0: 3675 9dbe d307 ffbd 4168 673f 697c 903e
000002f0: a3c8 b53b efd5 3cbe 9abb 0ebd 5f38 dfbe
00000300: d377 43be 65eb 4b3e 66c3 0abf 4f64 243f
00000310: 27f3 02be 3d5a 823d eb1e fdbf 270e 23be
00000320: bba3 a5be 567a 903e cc08 3bbe 0b39 8dbd
00000330: 7ec4 dcbe c388 46bc 0f80 b4be 2b68 893f
00000340: d48d bc3e f490 2dbe a39d 5fbe c37a c7be
00000350: 1eb4 c73e b4c0 e0be 1b4e 923d 9a62 053e
00000360: 959a a1bc 7d38 e53e 3dd4 4a3f 5798 11bf
00000370: 0240 233f a2dc 5ebf d5a5 213e 712a 883e
00000380: b6b4 c83e 18cd 05bf 7451 3cbe 6cfd 7d3d
00000390: 1325 623f 54ae c73e 0422 7abe d193 d83f
000003a0: 676d 983e 5c2d c63e 700c fb3d 0b71 f93e
000003b0: 83b1 11bf 29ca 473e f91e c23e 203d 06bf
000003c0: 0f5a 203e aa81 0ebd b7e5 fa3e 1db0 65be
000003d0: 00ba 213c e2ac 783e 23a9 db3e 7cb9 37be
000003e0: a8ca 84bb 65fe 25bf 3cb4 14bf bd0d 5f3e
000003f0: cc8a 2bbe 0edb 0dbf eae4 11be 2984 b2be
0.73737067 0.529564 -0.9288931 0.16726507 0.13310637 0.11010502 -0.53692335 0.03643827
2.105517 -1.3569003 0.6532491 -0.25658402 0.72893125 -0.23005372 0.51101846 0.6734801
-0.7244419 -0.21443072 -0.22729084 -0.88580686 0.18150908 -1.2140684 -0.042382456 -0.07441125
-1.0562943 -0.083072335 -0.789821 -0.18997326 1.1788356 1.4954203 0.2666196 -0.7199096
0.09752681 -1.1771841 0.35266095 0.038135722 -0.2782662 -0.10860223 0.06413459 -0.18004917
-0.035325784 -1.0616454 0.29359806 0.05098269 -0.12306392 -0.14000641 0.08926255 -0.11651633
-0.53489983 0.17323412 -0.090608485 0.86905116 0.28256842 0.2475442 0.3918921 -0.44201106
-0.08893206 2.684971 -0.41525158 -0.38836342 -1.1592565 0.69789755 0.030073587 0.075681016
1.7787427 -0.12580326 -0.93071705 0.00032702775 -0.2190158 0.07035924 -0.025513884 -0.0036114592
1.3354926 0.2604111 1.2704208 -0.6830783 0.02162327 -2.4398732 0.5000085 0.812735
-1.0231825 -0.23253499 2.604537 0.41888854 -0.010745871 -0.21265794 -0.52662545 -0.4568998
-0.33873445 -0.0026067079 -0.43835363 0.08147912 0.7309691 2.468384 -0.38613054 0.24460125
-0.37376013 0.80224395 -0.05531916 -1.3013091 0.3481748 -0.26116017 -0.33613423 -1.9125229
-0.25854045 -0.05070459 0.09333825 0.62037647 -0.14121218 0.05812217 0.9564657 0.1219636
-0.3403956 0.3744367 -0.41349268 0.4932189 -0.22689766 -0.25244948 0.38293436 -1.2440531
-0.37142074 -0.14997001 0.67296034 0.64877784 -0.9156007 -0.07768181 0.24706206 0.42183712
0.59169364 -0.13237444 -0.12470082 0.07249372 0.9596118 -0.15226936 -0.3542906 0.059576117
0.47524965 -0.25056574 0.4490841 0.7249934 -1.6705786 0.36945552 -0.15249638 1.485705
1.4754589 0.65567344 0.36286527 -0.42141354 -0.022641346 -0.37215123 -0.94922936 0.04637624
-0.75897115 0.68138885 -1.1185963 0.51239973 -0.51014465 -0.4942553 -0.4027083 0.041700464
0.10961806 -0.32433134 0.20841463 -0.25261998 0.9457224 2.0460985 0.44121403 0.13730119
-0.17469823 0.2072696 0.17465545 -0.12552455 -0.0011769467 0.053918667 -0.39830717 0.026566027
-0.7222355 -1.136246 -0.21197768 0.062191833 -0.5374166 -0.014871226 0.5810015 -0.4114702
-0.30753487 -0.12452664 0.90393454 0.28219917 0.0055475994 -0.18440984 -0.03484688 -0.43597695
-0.19088678 0.19914015 -0.54204404 0.6421556 -0.12788068 0.06364868 -1.977506 -0.15923367
-0.3235148 0.28218335 -0.18265074 -0.06895646 -0.43118662 -0.0121175675 -0.3525395 1.0734915
0.36826956 -0.16949826 -0.21837477 -0.38960847 0.39004606 -0.4389702 0.07143804 0.13025895
-0.01972703 0.4476966 0.792301 -0.5687308 0.63769543 -0.8705541 0.15785916 0.2659488
0.39200372 -0.52266073 -0.18390447 0.06200926 0.8833782 0.3900019 -0.24427038 1.692011
0.29770967 0.3870648 0.12258232 0.48719057 -0.56911486 0.19510712 0.37914255 -0.5243702
0.15659355 -0.034791626 0.49003384 -0.22430463 0.009871006 0.242847 0.4290248 -0.1794185
-0.004052479 -0.648413 -0.58087516 0.21782584 -0.16752166 -0.55412376 -0.1424748 -0.34866455
